…
#adding model layer
model.add(Conv2D(32,(3,3),input_shape=(64,64,3),activation='relu'))
model.add(MaxPooling2D(pool_size=(2,2)))
model.add(Conv2D(32,(3,3),activation='relu'))
model.add(MaxPooling2D(pool_size=(2,2)))
model.add(Flatten())
Adding Dense Layers

model.add(Dense(32))
model.add(Dense(6,activation='softmax'))

model.summary()
Model: "sequential"
_________________________________________________________________
 Layer (type)                Output Shape              Param #   
=================================================================
 conv2d (Conv2D)             (None, 62, 62, 32)        896       
                                                                 
 max_pooling2d (MaxPooling2D  (None, 31, 31, 32)       0         
 )                                                               
                                                                 
 conv2d_1 (Conv2D)           (None, 29, 29, 32)        9248      
                                                                 
 max_pooling2d_1 (MaxPooling  (None, 14, 14, 32)       0         
 2D)                                                             
                                                                 
 flatten (Flatten)           (None, 6272)              0         
                                                                 
 dense (Dense)               (None, 32)                200736    
                                                                 
 dense_1 (Dense)             (None, 6)                 198       
                                                                 
=================================================================
Total params: 211,078
Trainable params: 211,078
Non-trainable params: 0
_________________________________________________________________
Configuring the learning processmodel.compile(optimizer='adam',loss='categorical_crossentropy',metrics=['accuracy'])
…
